app/models/modelo_red_neuronal.onnx (onnx, 3755 bytes, 9 tensors)

coefficient f4 [44, 6]
00000000: a48e 493e a2a5 f73d 20d6 663e ce8c 4fbd
00000010: c04e 1abe bf90 59be 7a19 113e c544 f73d
00000020: b3a0 05bf 568d 453e 25d0 febd e57c a03e
00000030: 6d31 e4bd 43e2 83bd 2e6b 61bd 0650 623c
00000040: f54c d73c e96f f4bd 0d24 cb3d 2f9a a9bc
00000050: 40af 4d3c f34d 563d 68f6 ffbd 0b90 d6bc
00000060: a4dd ab3c 9c06 3b3e d42a 5abd 3bfc 8b3e
00000070: adeb 813d 5418 ab3e f7da cebc 514f 1abd
00000080: cc16 b6bd 8d16 36bd 5262 b13b 5bb5 ba3e
00000090: 026a 213a a28b 57bb 1f5d 73bb 12d0 80b7
000000a0: 17d5 87ba 2a9c 523b 577d 40bd 7673 20bd
000000b0: 8f7a c7bd ef95 5a3d fa9b 3f3c 77a3 b33c
000000c0: 84e3 a7be 2ea3 cabd db36 43be 8ccb 193e
000000d0: 63ac 983e 6832 8b3e f09e adbd 6d25 23be
000000e0: dbd1 bb3e 1e5c 3d3e 9098 7cbe 803b 143f
000000f0: 5752 933d 114c 0fbe 3c45 c6be b8aa 0fbe
00000100: 4174 5fbe 80ab c4bd 5086 f03d b97c 963d
00000110: 1a6c 91be 5bef 8ebc 2244 fa3c 316d cb3d
00000120: a9a9 4c3d f426 f53b f0e7 44be fc3f a03c
00000130: 7271 debd 8346 fdbd 1b35 dc3d 1e2f aa3c
00000140: e75e 3f3d 82c6 a93d 6685 5d3b ec39 62bd
00000150: 4d2f 4d3e c63d 2abe 5ef9 26be 4f33 5fbe
00000160: 3037 f2bd bb90 0c3e 81cb 963d ccdf 8f3e
00000170: 59cf 78bb 8730 1d3e 6df2 90be 4b42 a7bd
00000180: c32f bcbd 5507 3abd c741 36be 3034 6abd
00000190: 2f63 bd3e 1512 bebc a4c6 55be a4d3 a83c
000001a0: a158 3dbe 1f5c 513d 905c 0dbe 8239 7f3e
000001b0: fd1d 193e 6d09 d03d 56f2 6f3e fa0b a23d
000001c0: b248 45bc 812c 9b3d 3f6f 9fbc 649e 57be
000001d0: 7296 c4bd 6a21 263e a06f 743e 4661 523e
000001e0: c558 bd3d 374e a9bb a0ff bcbd deba 5e3c
000001f0: e7a7 d6bd 0312 aa3d cf24 1b3e 4c0a a0bd
00000200: fb20 613d 5d08 14bd 79d1 09be 9fb2 0e3d
00000210: b9e5 f7bd c1a1 2fbe 44fd 623d 48fe 97bd
00000220: 5b1a ec3d e0d2 1fbe 094a 853d cea7 c5bc
00000230: a205 89bd 5057 bdbc fa05 593e 037d a1bd
00000240: 25e8 253e dce7 14bc 85ae b1bc 0db8 833d
00000250: 9c11 713e ed86 a8bd a1e1 733e 3431 963e
00000260: b888 463d 32a7 883a 266e e0bd d448 8fbe
00000270: ec56 2abd 2df9 cb3e e3be 1d3e ffa2 7d3e
00000280: 395c 273e 40c1 cdbd 2341 7b3d 84c0 3d3e
00000290: 4b0d 63bd 9ece 033d 9d36 0c3d 8229 393e
000002a0: c0bb 16be 1ff1 42be 17e4 473e c9b8 283e
000002b0: b128 2e3e 5bad 933e 80d3 ec3d a5eb 92ba
000002c0: 55c5 6e3d 1890 91bc 8783 a6bd 7476 efbd
000002d0: 8c2c 0ebe e3e6 acbe c185 f6bd 523b 263e
000002e0: 7430 403e a127 8ebc 86d5 1d3d 0284 2c3e
000002f0: a35c ad3e 5b6d 733d 9d2a 963c 62b5 2a3d
00000300: dc18 3a3e ee40 4a3e d0f8 38bc d607 f03d
00000310: bc38 86bd 36ad 4a3e 32db a3bd 6ce0 3cbd
00000320: a036 003e 6b20 bcbd 0783 c23c e24d be3d
00000330: 5afa 00be 218e bc3e 3cd8 94bd e89a ac3c
00000340: d5b9 273b 436e 113d e48f 9bbc 0a0a afbb
00000350: b10c c23d 16cd 84bc b856 963d e733 b2bd
00000360: 9c3e 21bd 225e c53c 37ee 873d e733 fb3d
00000370: 98e4 39bd edd4 4c3e 12d6 dc3d 1bc3 2f3e
00000380: 6a38 8bbb 68fe 323e 18a7 443e 51b4 6c3e
00000390: 6441 f7bd 12ab b2be 7bd1 f43d 0b3c f5bd
000003a0: 2539 023e 2a9c 5b3e 5e1d cf3d 2392 513d
000003b0: d150 9dbd 05e7 cb3b 04da 6abe 372f fc3d
000003c0: a6df 38bc a63b 133e efce 083d b5bc 0d3e
000003d0: f8c6 bc3d 29ec a53d 258c ba3d 4e5a 35bd
000003e0: 85ba 663d d820 45bd cc67 083d e805 febc
000003f0: fd16 193e 4dc0 80bd fa1e 60bc 10df 3abd
0.1968332 0.12092139 0.2254262 -0.05067139 -0.15069103 -0.21246623 0.14169875 0.120736636
-0.5219833 0.19292197 -0.12442044 0.31345287 -0.1114224 -0.064396404 -0.055033855 0.013813024
0.026281813 -0.11935408 0.099189855 -0.020703403 0.01255399 0.052320432 -0.1249817 -0.026191732
0.02097971 0.1826424 -0.0532635 0.27340874 0.0634378 0.33416998 -0.025250895 -0.0376733
-0.08891067 -0.0444551 0.005413332 0.36466488 0.0006157459 -0.0032889624 -0.0037134362 -1.535568e-05
-0.0010363188 0.0032136538 -0.046994533 -0.039172612 -0.09740173 0.053365644 0.011694903 0.021928532
-0.32790768 -0.09894405 -0.19063894 0.15019053 0.2981902 0.27186894 -0.084775805 -0.15932246
0.36683545 0.18492171 -0.24667573 0.5790329 0.071934395 -0.13993861 -0.38724697 -0.14029968
-0.21821691 -0.096030235 0.11744368 0.07348008 -0.28402787 -0.017448118 0.030550066 0.09932936
0.049966488 0.00748145 -0.19229102 0.01956176 -0.10861482 -0.12366965 0.107523166 0.02077442
0.046721365 0.082898155 0.0033801435 -0.05523102 0.20037575 -0.16625127 -0.16306064 -0.21796916
-0.118269324 0.13727085 0.07363034 0.2810043 -0.0037965386 0.15350543 -0.28309956 -0.08166941
-0.09188797 -0.04541715 -0.1779853 -0.057178676 0.36989734 -0.023201982 -0.20876557 0.02060873
-0.1849084 0.051113244 -0.13804841 0.24924281 0.14952846 0.10158048 0.23432288 0.079124406
-0.012041258 0.07576848 -0.019462226 -0.21056515 -0.09599008 0.16223684 0.23870707 0.2054492
0.09245447 -0.0051667946 -0.09228444 0.013594357 -0.104812436 0.08304217 0.1515076 -0.07814464
0.054963093 -0.03614079 -0.13458814 0.034838315 -0.12104363 -0.17151548 0.055417314 -0.07421547
0.115284644 -0.15607786 0.06508262 -0.024127867 -0.066905275 -0.023112923 0.21193686 -0.07885172
0.16201837 -0.009088483 -0.021689663 0.06431589 0.23541874 -0.0822886 0.2381654 0.29334414
0.04847023 0.0010425805 -0.10958509 -0.2798525 -0.0415868 0.39838544 0.15404849 0.2476921
0.16343774 -0.10046625 0.061341416 0.1853047 -0.0554326 0.032179467 0.03423177 0.1808224
-0.14720058 -0.19037293 0.19520603 0.1647674 0.1700771 0.28843197 0.11563778 -0.0011209144
0.05829366 -0.017768905 -0.081305556 -0.11692515 -0.13884181 -0.33769903 -0.1203723 0.16233566
0.18768483 -0.01735288 0.03853371 0.16847232 0.3385974 0.05943046 0.018330866 0.041676886
0.18173546 0.19751331 -0.01128979 0.117202446 -0.0655379 0.19792637 -0.080007926 -0.046112463
0.12520838 -0.09185871 0.02374412 0.09292199 -0.12595502 0.36827186 -0.07267806 0.021069959
0.0025592942 0.035505544 -0.01898951 -0.005341773 0.09475077 -0.016211074 0.07340759 -0.08701306
-0.03936635 0.024092738 0.06637233 0.12265759 -0.04538402 0.200031 0.10783018 0.1716427
-0.0042486684 0.17479861 0.19204366 0.2311566 -0.12073019 -0.3489614 0.11954018 -0.11974343
0.12717111 0.2144629 0.10113023 0.051164757 -0.0768143 0.006222608 -0.22934729 0.12313693
-0.011283791 0.14378223 0.033400472 0.13841517 0.09217638 0.081016846 0.09108762 -0.044275574
0.056330223 -0.048127025 0.033302113 -0.031008676 0.14950176 -0.062866785 -0.01367926 -0.045622885

intercepts f4 [1, 6]
00000000: 2892 16bf 969c 81bf 116d cdbe 5d0e 64bf
00000010: 69d0 81bc 4f74 1e3e
-0.58816767 -1.0125911 -0.40122274 -0.89084417 -0.015846448 0.15474056

coefficient1 f4 [6, 3]
00000000: d0cf 663e 04cb 243f 9019 ba3d 444b e3be
00000010: 28d6 323f 2c59 76bf da09 19be e96c 87bf
00000020: 568b 64be 85d5 b1be 4c0b fa3e 42b8 43bf
00000030: a6d3 91be b30d 3bbf e4e6 87be aeb0 4b3d
00000040: 4124 9a3f 9012 b5be
0.22540212 0.6437228 0.09086907 -0.4439336 0.69858027 -0.96229815 -0.14945164 -1.0580112
-0.22318777 -0.34733215 0.48836744 -0.7645303 -0.28481787 -0.7306778 -0.26543343 0.04972904
1.2042314 -0.35365725

intercepts1 f4 [1, 3]
00000000: 92bd 9f3e 1ba6 7f3f 14ab 623f
0.31199318 0.9986283 0.88542295

coefficient2 f4 [3, 9]
00000000: 5f8c bcbe 85f5 613d 6f21 85bc 8499 9abe
00000010: 1a51 84bd 4064 8d3e 71fa 183e 4a73 a73d
00000020: 9ed6 8a3e 577b 92bf 9a40 c73e 80ab d8be
00000030: 9696 87bf 9ede 0ebe cf29 7f3f 6a9b 3b3f
00000040: 9c40 a33e 48bc 7d3f fd2e 4fbf 4cc9 413e
00000050: b281 dbbd 0755 41bf e478 c2bd 5d59 3a3f
00000060: 91fd f73e c5fb 523e 01eb 3c3f
-0.36825845 0.055165786 -0.016251294 -0.30195248 -0.064607814 0.27615547 0.14939286 0.081762865
0.27116865 -1.144389 0.38916475 -0.42318344 -1.059283 -0.13952109 0.9967317 0.7328402
0.3188523 0.9911542 -0.80931073 0.18924445 -0.10718097 -0.75520366 -0.09495714 0.7279261
0.48435643 0.20603855 0.7379609

intercepts2 f4 [1, 9]
00000000: a6b1 8d3f c460 9ebd 445e 16be 1bf1 783f
00000010: 6cf9 1d3f bbb2 6cbf cacf 12bf 26cc afbe
00000020: 57f6 69bf
1.1069839 -0.077333 -0.14684397 0.972429 0.6170871 -0.9246022 -0.5734831 -0.3433544
-0.9139151

coefficient3 f4 [9, 10]
00000000: 32d9 a7bd 3f68 08bf 2e8b 0b3f 518f 0a3f
00000010: e435 0c3f 35ac 133f ab06 f73e d07c 15bf
00000020: 504a 0a3f 2a39 10bf 27dd cb3c 5e96 3a3e
00000030: 1042 33be 8f19 31be 803e 0ebe 56db 2bbe
00000040: a06b 2dbe 9f9b 1a3e ff19 3cbe f187 f83d
00000050: 01b7 22bd 12a1 07be ff63 173e b62a 0b3e
00000060: e54f 213e 02ec 173e 6998 403e 70b2 16be
00000070: 7ff0 093e f2be 37be 4f8b 8ebd 1413 ffbe
00000080: eb04 ff3e b488 fc3e a86c f93e 4c4d fe3e
00000090: 80bc d93e 1eeb 03bf 258a f93e 44e0 01bf
000000a0: fb66 423c f951 69bd d394 853d 16d1 803d
000000b0: 4609 803d dd95 b53d 70f7 893c 46e6 adbd
000000c0: 7443 763d ecba a0bd 8edc 8c3d 3773 ef3e
000000d0: 3e78 edbe 7d81 efbe e7b6 eabe 946a f1be
000000e0: 9739 cebe 5d31 f33e 639b eebe e639 ec3e
000000f0: 2542 363d 53d2 a53e 94c4 a9be e0ed a7be
00000100: fc92 a7be 1d09 a9be c7f4 90be 4358 a83e
00000110: 83a9 a7be 0c08 a43e d1a2 8d3c 7fa6 d73d
00000120: e1b9 f3bd 22c7 e4bd 372e 15be cf72 07be
00000130: e571 bebd fee6 093e 7dd3 cdbd a685 313e
00000140: 5956 8b3d 8e02 f43e f20c ecbe 49b4 efbe
00000150: 1769 eabe b7f4 f2be 5fe2 ccbe f758 f43e
00000160: a1a0 f3be b932 ea3e
-0.081957236 -0.53284067 0.54509246 0.54124933 0.5476973 0.5768464 0.48247275 -0.58393574
0.5401964 -0.56337225 0.024885727 0.18221423 -0.1750567 -0.17294906 -0.1389103 -0.16782889
-0.16935587 0.15098427 -0.18369292 0.12135304 -0.039725307 -0.13245037 0.14784239 0.13590512
0.15753134 0.14836124 0.1880814 -0.14716506 0.13470648 -0.17943934 -0.06960165 -0.49819243
0.4980844 0.49323046 0.4871571 0.49668348 0.42526627 -0.51530635 0.48738208 -0.5073283
0.011865373 -0.05696294 0.065225266 0.0628988 0.06251769 0.08866475 0.01684162 -0.08491187
0.060122922 -0.078481525 0.06878005 0.4676759 -0.463808 -0.4677848 -0.45842668 -0.47151625
-0.40278313 0.474986 -0.46602926 0.46137923 0.044496674 0.32387027 -0.3315779 -0.32798672
-0.32729328 -0.33014765 -0.2831175 0.32879838 -0.32746515 0.3203739 0.017289551 0.105298035
-0.11900688 -0.11170794 -0.14568411 -0.1322739 -0.092990674 0.13467023 -0.10050104 0.17336139
0.06803579 0.476582 -0.46103626 -0.46817234 -0.45783302 -0.47452328 -0.40016457 0.47724125
-0.47583488 0.45741823

intercepts3 f4 [1, 10]
00000000: f864 11bf 0099 88bd 78f9 863d 3e64 963d
00000010: 139d 9d3d 06e3 713d 7797 d33d 2ebd c0bd
00000020: e371 873d 58b4 c8bd
-0.5679469 -0.066698074 0.06590551 0.073433384 0.07695975 0.059054397 0.10331624 -0.09411083
0.06613519 -0.09800023

coefficient4 f4 [10, 1]
00000000: 6646 1e3e 618e e13f 6fd2 dcbf bcc3 ddbf
00000010: d725 dfbf 7ca9 f2bf fb78 95bf 6138 ee3f
00000020: ef11 e1bf 0660 de3f
0.15456542 1.7621576 -1.7251719 -1.7325358 -1.7433423 -1.8957973 -1.1677545 1.8610955
-1.7583598 1.7373054
